name: "RDN_x4_block6_depth6_grow32"
layer {
  name: "data"
  type: "Input"
  top: "data"
  input_param {
    shape {
      dim: 1
      dim: 3
      dim: 57
      dim: 57
    }
  }
}
layer {
  name: "Convolution1"
  type: "Convolution"
  bottom: "data"
  top: "Convolution1"
  convolution_param {
    num_output: 32
    bias_term: false
    pad: 1
    kernel_size: 3
    stride: 1
    weight_filler {
      type: "msra"
    }
    bias_filler {
      type: "constant"
    }
  }
}
layer {
  name: "F_n1"
  type: "ReLU"
  bottom: "Convolution1"
  top: "Convolution1"
}
layer {
  name: "Convolution2"
  type: "Convolution"
  bottom: "Convolution1"
  top: "Convolution2"
  convolution_param {
    num_output: 32
    bias_term: false
    pad: 1
    kernel_size: 3
    stride: 1
    weight_filler {
      type: "msra"
    }
    bias_filler {
      type: "constant"
    }
  }
}
layer {
  name: "F_0"
  type: "ReLU"
  bottom: "Convolution2"
  top: "Convolution2"
}
layer {
  name: "Convolution3"
  type: "Convolution"
  bottom: "Convolution2"
  top: "Convolution3"
  convolution_param {
    num_output: 32
    bias_term: false
    pad: 1
    kernel_size: 3
    stride: 1
    weight_filler {
      type: "msra"
    }
    bias_filler {
      type: "constant"
    }
  }
}
layer {
  name: "ReLU1"
  type: "ReLU"
  bottom: "Convolution3"
  top: "Convolution3"
}
layer {
  name: "Concat1"
  type: "Concat"
  bottom: "Convolution2"
  bottom: "Convolution3"
  top: "Concat1"
  concat_param {
    axis: 1
  }
}
layer {
  name: "Convolution4"
  type: "Convolution"
  bottom: "Concat1"
  top: "Convolution4"
  convolution_param {
    num_output: 32
    bias_term: false
    pad: 1
    kernel_size: 3
    stride: 1
    weight_filler {
      type: "msra"
    }
    bias_filler {
      type: "constant"
    }
  }
}
layer {
  name: "ReLU2"
  type: "ReLU"
  bottom: "Convolution4"
  top: "Convolution4"
}
layer {
  name: "Concat2"
  type: "Concat"
  bottom: "Concat1"
  bottom: "Convolution4"
  top: "Concat2"
  concat_param {
    axis: 1
  }
}
layer {
  name: "Convolution5"
  type: "Convolution"
  bottom: "Concat2"
  top: "Convolution5"
  convolution_param {
    num_output: 32
    bias_term: false
    pad: 1
    kernel_size: 3
    stride: 1
    weight_filler {
      type: "msra"
    }
    bias_filler {
      type: "constant"
    }
  }
}
layer {
  name: "ReLU3"
  type: "ReLU"
  bottom: "Convolution5"
  top: "Convolution5"
}
layer {
  name: "Concat3"
  type: "Concat"
  bottom: "Concat2"
  bottom: "Convolution5"
  top: "Concat3"
  concat_param {
    axis: 1
  }
}
layer {
  name: "Convolution6"
  type: "Convolution"
  bottom: "Concat3"
  top: "Convolution6"
  convolution_param {
    num_output: 32
    bias_term: false
    pad: 1
    kernel_size: 3
    stride: 1
    weight_filler {
      type: "msra"
    }
    bias_filler {
      type: "constant"
    }
  }
}
layer {
  name: "ReLU4"
  type: "ReLU"
  bottom: "Convolution6"
  top: "Convolution6"
}
layer {
  name: "Concat4"
  type: "Concat"
  bottom: "Concat3"
  bottom: "Convolution6"
  top: "Concat4"
  concat_param {
    axis: 1
  }
}
layer {
  name: "Convolution7"
  type: "Convolution"
  bottom: "Concat4"
  top: "Convolution7"
  convolution_param {
    num_output: 32
    bias_term: false
    pad: 1
    kernel_size: 3
    stride: 1
    weight_filler {
      type: "msra"
    }
    bias_filler {
      type: "constant"
    }
  }
}
layer {
  name: "ReLU5"
  type: "ReLU"
  bottom: "Convolution7"
  top: "Convolution7"
}
layer {
  name: "Concat5"
  type: "Concat"
  bottom: "Concat4"
  bottom: "Convolution7"
  top: "Concat5"
  concat_param {
    axis: 1
  }
}
layer {
  name: "Convolution8"
  type: "Convolution"
  bottom: "Concat5"
  top: "Convolution8"
  convolution_param {
    num_output: 32
    bias_term: false
    pad: 1
    kernel_size: 3
    stride: 1
    weight_filler {
      type: "msra"
    }
    bias_filler {
      type: "constant"
    }
  }
}
layer {
  name: "ReLU6"
  type: "ReLU"
  bottom: "Convolution8"
  top: "Convolution8"
}
layer {
  name: "Concat6"
  type: "Concat"
  bottom: "Concat5"
  bottom: "Convolution8"
  top: "Concat6"
  concat_param {
    axis: 1
  }
}
layer {
  name: "Convolution9"
  type: "Convolution"
  bottom: "Concat6"
  top: "Convolution9"
  convolution_param {
    num_output: 32
    bias_term: false
    pad: 0
    kernel_size: 1
    stride: 1
    weight_filler {
      type: "msra"
    }
    bias_filler {
      type: "constant"
    }
  }
}
layer {
  name: "ReLU7"
  type: "ReLU"
  bottom: "Convolution9"
  top: "Convolution9"
}
layer {
  name: "Eltwise1"
  type: "Eltwise"
  bottom: "Convolution9"
  bottom: "Convolution2"
  top: "Eltwise1"
}
layer {
  name: "Convolution10"
  type: "Convolution"
  bottom: "Eltwise1"
  top: "Convolution10"
  convolution_param {
    num_output: 32
    bias_term: false
    pad: 1
    kernel_size: 3
    stride: 1
    weight_filler {
      type: "msra"
    }
    bias_filler {
      type: "constant"
    }
  }
}
layer {
  name: "ReLU8"
  type: "ReLU"
  bottom: "Convolution10"
  top: "Convolution10"
}
layer {
  name: "Concat7"
  type: "Concat"
  bottom: "Eltwise1"
  bottom: "Convolution10"
  top: "Concat7"
  concat_param {
    axis: 1
  }
}
layer {
  name: "Convolution11"
  type: "Convolution"
  bottom: "Concat7"
  top: "Convolution11"
  convolution_param {
    num_output: 32
    bias_term: false
    pad: 1
    kernel_size: 3
    stride: 1
    weight_filler {
      type: "msra"
    }
    bias_filler {
      type: "constant"
    }
  }
}
layer {
  name: "ReLU9"
  type: "ReLU"
  bottom: "Convolution11"
  top: "Convolution11"
}
layer {
  name: "Concat8"
  type: "Concat"
  bottom: "Concat7"
  bottom: "Convolution11"
  top: "Concat8"
  concat_param {
    axis: 1
  }
}
layer {
  name: "Convolution12"
  type: "Convolution"
  bottom: "Concat8"
  top: "Convolution12"
  convolution_param {
    num_output: 32
    bias_term: false
    pad: 1
    kernel_size: 3
    stride: 1
    weight_filler {
      type: "msra"
    }
    bias_filler {
      type: "constant"
    }
  }
}
layer {
  name: "ReLU10"
  type: "ReLU"
  bottom: "Convolution12"
  top: "Convolution12"
}
layer {
  name: "Concat9"
  type: "Concat"
  bottom: "Concat8"
  bottom: "Convolution12"
  top: "Concat9"
  concat_param {
    axis: 1
  }
}
layer {
  name: "Convolution13"
  type: "Convolution"
  bottom: "Concat9"
  top: "Convolution13"
  convolution_param {
    num_output: 32
    bias_term: false
    pad: 1
    kernel_size: 3
    stride: 1
    weight_filler {
      type: "msra"
    }
    bias_filler {
      type: "constant"
    }
  }
}
layer {
  name: "ReLU11"
  type: "ReLU"
  bottom: "Convolution13"
  top: "Convolution13"
}
layer {
  name: "Concat10"
  type: "Concat"
  bottom: "Concat9"
  bottom: "Convolution13"
  top: "Concat10"
  concat_param {
    axis: 1
  }
}
layer {
  name: "Convolution14"
  type: "Convolution"
  bottom: "Concat10"
  top: "Convolution14"
  convolution_param {
    num_output: 32
    bias_term: false
    pad: 1
    kernel_size: 3
    stride: 1
    weight_filler {
      type: "msra"
    }
    bias_filler {
      type: "constant"
    }
  }
}
layer {
  name: "ReLU12"
  type: "ReLU"
  bottom: "Convolution14"
  top: "Convolution14"
}
layer {
  name: "Concat11"
  type: "Concat"
  bottom: "Concat10"
  bottom: "Convolution14"
  top: "Concat11"
  concat_param {
    axis: 1
  }
}
layer {
  name: "Convolution15"
  type: "Convolution"
  bottom: "Concat11"
  top: "Convolution15"
  convolution_param {
    num_output: 32
    bias_term: false
    pad: 1
    kernel_size: 3
    stride: 1
    weight_filler {
      type: "msra"
    }
    bias_filler {
      type: "constant"
    }
  }
}
layer {
  name: "ReLU13"
  type: "ReLU"
  bottom: "Convolution15"
  top: "Convolution15"
}
layer {
  name: "Concat12"
  type: "Concat"
  bottom: "Concat11"
  bottom: "Convolution15"
  top: "Concat12"
  concat_param {
    axis: 1
  }
}
layer {
  name: "Convolution16"
  type: "Convolution"
  bottom: "Concat12"
  top: "Convolution16"
  convolution_param {
    num_output: 32
    bias_term: false
    pad: 0
    kernel_size: 1
    stride: 1
    weight_filler {
      type: "msra"
    }
    bias_filler {
      type: "constant"
    }
  }
}
layer {
  name: "ReLU14"
  type: "ReLU"
  bottom: "Convolution16"
  top: "Convolution16"
}
layer {
  name: "Eltwise2"
  type: "Eltwise"
  bottom: "Convolution16"
  bottom: "Eltwise1"
  top: "Eltwise2"
}
layer {
  name: "Convolution17"
  type: "Convolution"
  bottom: "Eltwise2"
  top: "Convolution17"
  convolution_param {
    num_output: 32
    bias_term: false
    pad: 1
    kernel_size: 3
    stride: 1
    weight_filler {
      type: "msra"
    }
    bias_filler {
      type: "constant"
    }
  }
}
layer {
  name: "ReLU15"
  type: "ReLU"
  bottom: "Convolution17"
  top: "Convolution17"
}
layer {
  name: "Concat13"
  type: "Concat"
  bottom: "Eltwise2"
  bottom: "Convolution17"
  top: "Concat13"
  concat_param {
    axis: 1
  }
}
layer {
  name: "Convolution18"
  type: "Convolution"
  bottom: "Concat13"
  top: "Convolution18"
  convolution_param {
    num_output: 32
    bias_term: false
    pad: 1
    kernel_size: 3
    stride: 1
    weight_filler {
      type: "msra"
    }
    bias_filler {
      type: "constant"
    }
  }
}
layer {
  name: "ReLU16"
  type: "ReLU"
  bottom: "Convolution18"
  top: "Convolution18"
}
layer {
  name: "Concat14"
  type: "Concat"
  bottom: "Concat13"
  bottom: "Convolution18"
  top: "Concat14"
  concat_param {
    axis: 1
  }
}
layer {
  name: "Convolution19"
  type: "Convolution"
  bottom: "Concat14"
  top: "Convolution19"
  convolution_param {
    num_output: 32
    bias_term: false
    pad: 1
    kernel_size: 3
    stride: 1
    weight_filler {
      type: "msra"
    }
    bias_filler {
      type: "constant"
    }
  }
}
layer {
  name: "ReLU17"
  type: "ReLU"
  bottom: "Convolution19"
  top: "Convolution19"
}
layer {
  name: "Concat15"
  type: "Concat"
  bottom: "Concat14"
  bottom: "Convolution19"
  top: "Concat15"
  concat_param {
    axis: 1
  }
}
layer {
  name: "Convolution20"
  type: "Convolution"
  bottom: "Concat15"
  top: "Convolution20"
  convolution_param {
    num_output: 32
    bias_term: false
    pad: 1
    kernel_size: 3
    stride: 1
    weight_filler {
      type: "msra"
    }
    bias_filler {
      type: "constant"
    }
  }
}
layer {
  name: "ReLU18"
  type: "ReLU"
  bottom: "Convolution20"
  top: "Convolution20"
}
layer {
  name: "Concat16"
  type: "Concat"
  bottom: "Concat15"
  bottom: "Convolution20"
  top: "Concat16"
  concat_param {
    axis: 1
  }
}
layer {
  name: "Convolution21"
  type: "Convolution"
  bottom: "Concat16"
  top: "Convolution21"
  convolution_param {
    num_output: 32
    bias_term: false
    pad: 1
    kernel_size: 3
    stride: 1
    weight_filler {
      type: "msra"
    }
    bias_filler {
      type: "constant"
    }
  }
}
layer {
  name: "ReLU19"
  type: "ReLU"
  bottom: "Convolution21"
  top: "Convolution21"
}
layer {
  name: "Concat17"
  type: "Concat"
  bottom: "Concat16"
  bottom: "Convolution21"
  top: "Concat17"
  concat_param {
    axis: 1
  }
}
layer {
  name: "Convolution22"
  type: "Convolution"
  bottom: "Concat17"
  top: "Convolution22"
  convolution_param {
    num_output: 32
    bias_term: false
    pad: 1
    kernel_size: 3
    stride: 1
    weight_filler {
      type: "msra"
    }
    bias_filler {
      type: "constant"
    }
  }
}
layer {
  name: "ReLU20"
  type: "ReLU"
  bottom: "Convolution22"
  top: "Convolution22"
}
layer {
  name: "Concat18"
  type: "Concat"
  bottom: "Concat17"
  bottom: "Convolution22"
  top: "Concat18"
  concat_param {
    axis: 1
  }
}
layer {
  name: "Convolution23"
  type: "Convolution"
  bottom: "Concat18"
  top: "Convolution23"
  convolution_param {
    num_output: 32
    bias_term: false
    pad: 0
    kernel_size: 1
    stride: 1
    weight_filler {
      type: "msra"
    }
    bias_filler {
      type: "constant"
    }
  }
}
layer {
  name: "ReLU21"
  type: "ReLU"
  bottom: "Convolution23"
  top: "Convolution23"
}
layer {
  name: "Eltwise3"
  type: "Eltwise"
  bottom: "Convolution23"
  bottom: "Eltwise2"
  top: "Eltwise3"
}
layer {
  name: "Convolution24"
  type: "Convolution"
  bottom: "Eltwise3"
  top: "Convolution24"
  convolution_param {
    num_output: 32
    bias_term: false
    pad: 1
    kernel_size: 3
    stride: 1
    weight_filler {
      type: "msra"
    }
    bias_filler {
      type: "constant"
    }
  }
}
layer {
  name: "ReLU22"
  type: "ReLU"
  bottom: "Convolution24"
  top: "Convolution24"
}
layer {
  name: "Concat19"
  type: "Concat"
  bottom: "Eltwise3"
  bottom: "Convolution24"
  top: "Concat19"
  concat_param {
    axis: 1
  }
}
layer {
  name: "Convolution25"
  type: "Convolution"
  bottom: "Concat19"
  top: "Convolution25"
  convolution_param {
    num_output: 32
    bias_term: false
    pad: 1
    kernel_size: 3
    stride: 1
    weight_filler {
      type: "msra"
    }
    bias_filler {
      type: "constant"
    }
  }
}
layer {
  name: "ReLU23"
  type: "ReLU"
  bottom: "Convolution25"
  top: "Convolution25"
}
layer {
  name: "Concat20"
  type: "Concat"
  bottom: "Concat19"
  bottom: "Convolution25"
  top: "Concat20"
  concat_param {
    axis: 1
  }
}
layer {
  name: "Convolution26"
  type: "Convolution"
  bottom: "Concat20"
  top: "Convolution26"
  convolution_param {
    num_output: 32
    bias_term: false
    pad: 1
    kernel_size: 3
    stride: 1
    weight_filler {
      type: "msra"
    }
    bias_filler {
      type: "constant"
    }
  }
}
layer {
  name: "ReLU24"
  type: "ReLU"
  bottom: "Convolution26"
  top: "Convolution26"
}
layer {
  name: "Concat21"
  type: "Concat"
  bottom: "Concat20"
  bottom: "Convolution26"
  top: "Concat21"
  concat_param {
    axis: 1
  }
}
layer {
  name: "Convolution27"
  type: "Convolution"
  bottom: "Concat21"
  top: "Convolution27"
  convolution_param {
    num_output: 32
    bias_term: false
    pad: 1
    kernel_size: 3
    stride: 1
    weight_filler {
      type: "msra"
    }
    bias_filler {
      type: "constant"
    }
  }
}
layer {
  name: "ReLU25"
  type: "ReLU"
  bottom: "Convolution27"
  top: "Convolution27"
}
layer {
  name: "Concat22"
  type: "Concat"
  bottom: "Concat21"
  bottom: "Convolution27"
  top: "Concat22"
  concat_param {
    axis: 1
  }
}
layer {
  name: "Convolution28"
  type: "Convolution"
  bottom: "Concat22"
  top: "Convolution28"
  convolution_param {
    num_output: 32
    bias_term: false
    pad: 1
    kernel_size: 3
    stride: 1
    weight_filler {
      type: "msra"
    }
    bias_filler {
      type: "constant"
    }
  }
}
layer {
  name: "ReLU26"
  type: "ReLU"
  bottom: "Convolution28"
  top: "Convolution28"
}
layer {
  name: "Concat23"
  type: "Concat"
  bottom: "Concat22"
  bottom: "Convolution28"
  top: "Concat23"
  concat_param {
    axis: 1
  }
}
layer {
  name: "Convolution29"
  type: "Convolution"
  bottom: "Concat23"
  top: "Convolution29"
  convolution_param {
    num_output: 32
    bias_term: false
    pad: 1
    kernel_size: 3
    stride: 1
    weight_filler {
      type: "msra"
    }
    bias_filler {
      type: "constant"
    }
  }
}
layer {
  name: "ReLU27"
  type: "ReLU"
  bottom: "Convolution29"
  top: "Convolution29"
}
layer {
  name: "Concat24"
  type: "Concat"
  bottom: "Concat23"
  bottom: "Convolution29"
  top: "Concat24"
  concat_param {
    axis: 1
  }
}
layer {
  name: "Convolution30"
  type: "Convolution"
  bottom: "Concat24"
  top: "Convolution30"
  convolution_param {
    num_output: 32
    bias_term: false
    pad: 0
    kernel_size: 1
    stride: 1
    weight_filler {
      type: "msra"
    }
    bias_filler {
      type: "constant"
    }
  }
}
layer {
  name: "ReLU28"
  type: "ReLU"
  bottom: "Convolution30"
  top: "Convolution30"
}
layer {
  name: "Eltwise4"
  type: "Eltwise"
  bottom: "Convolution30"
  bottom: "Eltwise3"
  top: "Eltwise4"
}
layer {
  name: "Convolution31"
  type: "Convolution"
  bottom: "Eltwise4"
  top: "Convolution31"
  convolution_param {
    num_output: 32
    bias_term: false
    pad: 1
    kernel_size: 3
    stride: 1
    weight_filler {
      type: "msra"
    }
    bias_filler {
      type: "constant"
    }
  }
}
layer {
  name: "ReLU29"
  type: "ReLU"
  bottom: "Convolution31"
  top: "Convolution31"
}
layer {
  name: "Concat25"
  type: "Concat"
  bottom: "Eltwise4"
  bottom: "Convolution31"
  top: "Concat25"
  concat_param {
    axis: 1
  }
}
layer {
  name: "Convolution32"
  type: "Convolution"
  bottom: "Concat25"
  top: "Convolution32"
  convolution_param {
    num_output: 32
    bias_term: false
    pad: 1
    kernel_size: 3
    stride: 1
    weight_filler {
      type: "msra"
    }
    bias_filler {
      type: "constant"
    }
  }
}
layer {
  name: "ReLU30"
  type: "ReLU"
  bottom: "Convolution32"
  top: "Convolution32"
}
layer {
  name: "Concat26"
  type: "Concat"
  bottom: "Concat25"
  bottom: "Convolution32"
  top: "Concat26"
  concat_param {
    axis: 1
  }
}
layer {
  name: "Convolution33"
  type: "Convolution"
  bottom: "Concat26"
  top: "Convolution33"
  convolution_param {
    num_output: 32
    bias_term: false
    pad: 1
    kernel_size: 3
    stride: 1
    weight_filler {
      type: "msra"
    }
    bias_filler {
      type: "constant"
    }
  }
}
layer {
  name: "ReLU31"
  type: "ReLU"
  bottom: "Convolution33"
  top: "Convolution33"
}
layer {
  name: "Concat27"
  type: "Concat"
  bottom: "Concat26"
  bottom: "Convolution33"
  top: "Concat27"
  concat_param {
    axis: 1
  }
}
layer {
  name: "Convolution34"
  type: "Convolution"
  bottom: "Concat27"
  top: "Convolution34"
  convolution_param {
    num_output: 32
    bias_term: false
    pad: 1
    kernel_size: 3
    stride: 1
    weight_filler {
      type: "msra"
    }
    bias_filler {
      type: "constant"
    }
  }
}
layer {
  name: "ReLU32"
  type: "ReLU"
  bottom: "Convolution34"
  top: "Convolution34"
}
layer {
  name: "Concat28"
  type: "Concat"
  bottom: "Concat27"
  bottom: "Convolution34"
  top: "Concat28"
  concat_param {
    axis: 1
  }
}
layer {
  name: "Convolution35"
  type: "Convolution"
  bottom: "Concat28"
  top: "Convolution35"
  convolution_param {
    num_output: 32
    bias_term: false
    pad: 1
    kernel_size: 3
    stride: 1
    weight_filler {
      type: "msra"
    }
    bias_filler {
      type: "constant"
    }
  }
}
layer {
  name: "ReLU33"
  type: "ReLU"
  bottom: "Convolution35"
  top: "Convolution35"
}
layer {
  name: "Concat29"
  type: "Concat"
  bottom: "Concat28"
  bottom: "Convolution35"
  top: "Concat29"
  concat_param {
    axis: 1
  }
}
layer {
  name: "Convolution36"
  type: "Convolution"
  bottom: "Concat29"
  top: "Convolution36"
  convolution_param {
    num_output: 32
    bias_term: false
    pad: 1
    kernel_size: 3
    stride: 1
    weight_filler {
      type: "msra"
    }
    bias_filler {
      type: "constant"
    }
  }
}
layer {
  name: "ReLU34"
  type: "ReLU"
  bottom: "Convolution36"
  top: "Convolution36"
}
layer {
  name: "Concat30"
  type: "Concat"
  bottom: "Concat29"
  bottom: "Convolution36"
  top: "Concat30"
  concat_param {
    axis: 1
  }
}
layer {
  name: "Convolution37"
  type: "Convolution"
  bottom: "Concat30"
  top: "Convolution37"
  convolution_param {
    num_output: 32
    bias_term: false
    pad: 0
    kernel_size: 1
    stride: 1
    weight_filler {
      type: "msra"
    }
    bias_filler {
      type: "constant"
    }
  }
}
layer {
  name: "ReLU35"
  type: "ReLU"
  bottom: "Convolution37"
  top: "Convolution37"
}
layer {
  name: "Eltwise5"
  type: "Eltwise"
  bottom: "Convolution37"
  bottom: "Eltwise4"
  top: "Eltwise5"
}
layer {
  name: "Convolution38"
  type: "Convolution"
  bottom: "Eltwise5"
  top: "Convolution38"
  convolution_param {
    num_output: 32
    bias_term: false
    pad: 1
    kernel_size: 3
    stride: 1
    weight_filler {
      type: "msra"
    }
    bias_filler {
      type: "constant"
    }
  }
}
layer {
  name: "ReLU36"
  type: "ReLU"
  bottom: "Convolution38"
  top: "Convolution38"
}
layer {
  name: "Concat31"
  type: "Concat"
  bottom: "Eltwise5"
  bottom: "Convolution38"
  top: "Concat31"
  concat_param {
    axis: 1
  }
}
layer {
  name: "Convolution39"
  type: "Convolution"
  bottom: "Concat31"
  top: "Convolution39"
  convolution_param {
    num_output: 32
    bias_term: false
    pad: 1
    kernel_size: 3
    stride: 1
    weight_filler {
      type: "msra"
    }
    bias_filler {
      type: "constant"
    }
  }
}
layer {
  name: "ReLU37"
  type: "ReLU"
  bottom: "Convolution39"
  top: "Convolution39"
}
layer {
  name: "Concat32"
  type: "Concat"
  bottom: "Concat31"
  bottom: "Convolution39"
  top: "Concat32"
  concat_param {
    axis: 1
  }
}
layer {
  name: "Convolution40"
  type: "Convolution"
  bottom: "Concat32"
  top: "Convolution40"
  convolution_param {
    num_output: 32
    bias_term: false
    pad: 1
    kernel_size: 3
    stride: 1
    weight_filler {
      type: "msra"
    }
    bias_filler {
      type: "constant"
    }
  }
}
layer {
  name: "ReLU38"
  type: "ReLU"
  bottom: "Convolution40"
  top: "Convolution40"
}
layer {
  name: "Concat33"
  type: "Concat"
  bottom: "Concat32"
  bottom: "Convolution40"
  top: "Concat33"
  concat_param {
    axis: 1
  }
}
layer {
  name: "Convolution41"
  type: "Convolution"
  bottom: "Concat33"
  top: "Convolution41"
  convolution_param {
    num_output: 32
    bias_term: false
    pad: 1
    kernel_size: 3
    stride: 1
    weight_filler {
      type: "msra"
    }
    bias_filler {
      type: "constant"
    }
  }
}
layer {
  name: "ReLU39"
  type: "ReLU"
  bottom: "Convolution41"
  top: "Convolution41"
}
layer {
  name: "Concat34"
  type: "Concat"
  bottom: "Concat33"
  bottom: "Convolution41"
  top: "Concat34"
  concat_param {
    axis: 1
  }
}
layer {
  name: "Convolution42"
  type: "Convolution"
  bottom: "Concat34"
  top: "Convolution42"
  convolution_param {
    num_output: 32
    bias_term: false
    pad: 1
    kernel_size: 3
    stride: 1
    weight_filler {
      type: "msra"
    }
    bias_filler {
      type: "constant"
    }
  }
}
layer {
  name: "ReLU40"
  type: "ReLU"
  bottom: "Convolution42"
  top: "Convolution42"
}
layer {
  name: "Concat35"
  type: "Concat"
  bottom: "Concat34"
  bottom: "Convolution42"
  top: "Concat35"
  concat_param {
    axis: 1
  }
}
layer {
  name: "Convolution43"
  type: "Convolution"
  bottom: "Concat35"
  top: "Convolution43"
  convolution_param {
    num_output: 32
    bias_term: false
    pad: 1
    kernel_size: 3
    stride: 1
    weight_filler {
      type: "msra"
    }
    bias_filler {
      type: "constant"
    }
  }
}
layer {
  name: "ReLU41"
  type: "ReLU"
  bottom: "Convolution43"
  top: "Convolution43"
}
layer {
  name: "Concat36"
  type: "Concat"
  bottom: "Concat35"
  bottom: "Convolution43"
  top: "Concat36"
  concat_param {
    axis: 1
  }
}
layer {
  name: "Convolution44"
  type: "Convolution"
  bottom: "Concat36"
  top: "Convolution44"
  convolution_param {
    num_output: 32
    bias_term: false
    pad: 0
    kernel_size: 1
    stride: 1
    weight_filler {
      type: "msra"
    }
    bias_filler {
      type: "constant"
    }
  }
}
layer {
  name: "ReLU42"
  type: "ReLU"
  bottom: "Convolution44"
  top: "Convolution44"
}
layer {
  name: "block"
  type: "Eltwise"
  bottom: "Convolution44"
  bottom: "Eltwise5"
  top: "block"
}
layer {
  name: "Concat37"
  type: "Concat"
  bottom: "Eltwise1"
  bottom: "Eltwise2"
  top: "Concat37"
  concat_param {
    axis: 1
  }
}
layer {
  name: "Concat38"
  type: "Concat"
  bottom: "Concat37"
  bottom: "Eltwise3"
  top: "Concat38"
  concat_param {
    axis: 1
  }
}
layer {
  name: "Concat39"
  type: "Concat"
  bottom: "Concat38"
  bottom: "Eltwise4"
  top: "Concat39"
  concat_param {
    axis: 1
  }
}
layer {
  name: "Concat40"
  type: "Concat"
  bottom: "Concat39"
  bottom: "Eltwise5"
  top: "Concat40"
  concat_param {
    axis: 1
  }
}
layer {
  name: "contig_memory"
  type: "Concat"
  bottom: "Concat40"
  bottom: "block"
  top: "contig_memory"
  concat_param {
    axis: 1
  }
}
layer {
  name: "Convolution45"
  type: "Convolution"
  bottom: "contig_memory"
  top: "Convolution45"
  convolution_param {
    num_output: 32
    bias_term: false
    pad: 0
    kernel_size: 1
    stride: 1
    weight_filler {
      type: "msra"
    }
    bias_filler {
      type: "constant"
    }
  }
}
layer {
  name: "global_fuse"
  type: "ReLU"
  bottom: "Convolution45"
  top: "Convolution45"
}
layer {
  name: "Convolution46"
  type: "Convolution"
  bottom: "Convolution45"
  top: "Convolution46"
  convolution_param {
    num_output: 32
    bias_term: false
    pad: 1
    kernel_size: 3
    stride: 1
    weight_filler {
      type: "msra"
    }
    bias_filler {
      type: "constant"
    }
  }
}
layer {
  name: "F_GF"
  type: "ReLU"
  bottom: "Convolution46"
  top: "Convolution46"
}
layer {
  name: "F_DF"
  type: "Eltwise"
  bottom: "Convolution46"
  bottom: "Convolution1"
  top: "F_DF"
}
layer {
  name: "Deconvolution1"
  type: "Deconvolution"
  bottom: "F_DF"
  top: "Deconvolution1"
  convolution_param {
    num_output: 32
    bias_term: false
    pad: 1
    kernel_size: 6
    stride: 4
    weight_filler {
      type: "msra"
    }
    bias_filler {
      type: "constant"
    }
  }
}
layer {
  name: "deconv"
  type: "ReLU"
  bottom: "Deconvolution1"
  top: "Deconvolution1"
}
layer {
  name: "Convolution47"
  type: "Convolution"
  bottom: "Deconvolution1"
  top: "Convolution47"
  convolution_param {
    num_output: 3
    bias_term: false
    pad: 1
    kernel_size: 3
    stride: 1
    weight_filler {
      type: "msra"
    }
    bias_filler {
      type: "constant"
    }
  }
}
layer {
  name: "reconstruct"
  type: "ReLU"
  bottom: "Convolution47"
  top: "Convolution47"
}

